SSFTT/cls_SSFTT_IP/SSFTTnet_params.pth (torch, 625327 bytes, 30 tensors)

token_wA f4 [1, 4, 64]
0.04779591 0.017070863 0.10095436 -0.0082635665 0.1044216 -0.047904756 0.038309783 0.14586271
0.06876269 -0.04665544 0.05275192 -0.03456647 -0.08245475 0.09834147 0.015553974 0.048541695
-0.054177333 -0.11676287 0.015966758 -0.17271367 -0.0026763382 0.14547166 -0.031055406 -0.08333769
-0.0744689 -0.03947798 0.054929834 -0.090974554 0.069871604 -0.06528135 0.04965377 0.00027593676
-0.03734913 -0.06839772 0.0870785 -0.032539427 0.06766643 0.16881526 0.040531307 -0.015735328
0.121585704 -0.14285994 -0.10419876 0.057547506 0.03493972 -0.004139639 -0.039859314 0.047693063
-0.031475347 -0.063729845 0.09503315 0.055014443 0.036098097 0.10197945 0.054762628 0.061208587
0.11526363 0.051924396 -0.07528428 0.040721364 0.010139762 0.022236712 -0.09481901 -0.022066198
-0.123680845 0.18848917 0.025091726 0.08595325 0.043358624 0.09928799 -0.002473088 0.17278501
0.062432222 -0.1110364 0.07246851 -0.02760188 -0.032538753 0.20063111 0.012637685 0.14586388
0.05162998 0.0054808697 -0.0010296664 -0.014498812 -0.088852175 0.04911239 0.010403219 -0.057981826
-0.09408046 0.1176497 0.113091715 -0.0003543529 0.13792938 -0.046037704 0.07027606 -0.0073871966
0.117029816 -0.09506571 -0.028580682 0.07753612 0.14747703 0.07046523 0.13931082 -0.08359691
0.06290635 -0.04472866 0.02728693 0.10617231 -0.10695273 0.01045979 0.03912386 -0.056342307
0.045102794 -0.014659708 0.22118184 0.2297657 0.05807833 -0.01833766 -0.15145886 0.008801431
0.084007345 0.056606706 -0.16096725 -0.074315235 0.03851301 0.09388006 0.09817022 -0.18970628
0.18928243 0.15651706 -0.028523484 -0.1535527 0.036665402 -0.0037121144 0.013823791 0.24921936
0.04391938 -0.032041956 -0.19261196 0.034179725 -0.12870409 -0.030976186 -0.08108419 0.1118716
-0.08577967 -0.0065509644 -0.007640768 0.06794323 0.09634853 0.097452246 0.020211004 -0.10035875
0.092645764 -0.12869138 0.24159521 -0.08631062 0.0234179 -0.056982107 -0.061222475 0.134395
-0.19558781 -0.06503439 -0.021557804 -0.09437767 -0.051968407 0.24923569 0.07786916 0.13991107
-0.032405376 -0.035824843 0.103012905 -0.13447647 -0.059471663 -0.0372719 -0.17014393 0.082930945
-0.09615291 0.047304977 0.18290809 0.0040442613 -0.0027998178 0.06640035 -0.058962833 -0.037310064
0.14702383 -0.16148593 -0.13349634 0.08118944 -0.047683895 0.104501866 -0.07411807 0.08159452
0.008608625 0.15680543 0.09376547 -0.07000333 -0.09032477 0.076717936 0.067411564 0.19463491
-0.04729589 -0.0019403095 0.06474514 -0.056457248 -0.017312389 0.08143828 -0.0028884702 0.17117327
0.069832206 0.10756803 -0.04724528 -0.084694795 -0.08504883 0.032840695 0.027428808 -0.024446648
0.012646124 -0.024041248 -0.17284381 0.009411297 0.020016877 -0.08209769 -0.12134609 0.08649261
-0.04629469 -0.048327744 -0.019032368 0.00044129402 0.05820195 -0.048568644 0.14622469 -0.06485679
-0.030079694 0.06322818 0.02692857 0.07942126 -0.036188263 -0.22721215 0.2270938 -0.055202905
0.019900974 0.10026435 0.28090692 -0.053494632 -0.03131684 0.09854197 -0.073693834 -0.02340148
0.023263108 0.011272948 -0.18370129 0.052724384 0.01857178 0.080861315 -0.12626153 -0.053767584
00000000: a5c5 433d 32d8 8b3c 29c1 ce3d e963 07bc
00000010: feda d53d c737 44bd b8ea 1c3d 095d 153e
00000020: 74d3 8c3d c619 3fbd 6612 583d 9295 0dbd
00000030: 09de a8bd 4167 c93d 18d6 7e3c a8d3 463d
00000040: 0de9 5dbd 5f21 efbd b8cc 823c dadb 30be
00000050: 8165 2fbb 86f6 143e e867 febc f3ac aabd
00000060: 2783 98bd aab3 21bd 1bfe 603d de50 babd
00000070: d818 8f3d 3ab2 85bd c061 4b3d 9bab 9039
00000080: 67fb 18bd 1b14 8cbd 3656 b23d 1048 05bd
00000090: b294 8a3d e8dd 2c3e 2804 263d 60e7 80bc
000000a0: ed01 f93d e049 12be 2966 d5bd efb6 6b3d
000000b0: f41c 0f3d cfa5 87bb 8543 23bd cd59 433d
000000c0: 4bec 00bd cb84 82bd bda0 c23d d356 613d
000000d0: 99db 133d 9ada d03d c74e 603d dbb5 7a3d
000000e0: 570f ec3d adae 543d a52e 9abd 72cb 263d
000000f0: 3f21 263c c429 b63c 7830 c2bd 2cc4 b4bc
00000100: 624c fdbd 4e03 413e 2a8d cd3c 4208 b03d
00000110: d098 313d 8057 cb3d 8813 22bb 8eee 303e
00000120: eeb8 7f3d 0d67 e3bd 5f6a 943d 561d e2bc
00000130: 5b47 05bd 3e72 4d3e 4b0e 4f3c 575d 153e
00000140: f579 533d de98 b33b dff5 86ba 6d8c 6dbc
00000150: 21f8 b5bd 132a 493d 4372 2a3c 5a7e 6dbd
00000160: 42ad c0bd 53f2 f03d a19c e73d 71c8 b9b9
00000170: 5c3d 0d3e 0892 3cbd e5ec 8f3d 4c10 f2bb
00000180: 54ad ef3d d0b1 c2bd 0922 eabc 42cb 9e3d
00000190: 3804 173e 1350 903d 7fa7 0e3e db34 abbd
000001a0: 0bd5 803d 6635 37bd d788 df3c de70 d93d
000001b0: 080a dbbd 8a5f 2b3c 5740 203d 31c7 66bd
000001c0: b5bd 383d 462f 70bc 7e7d 623e b347 6b3e
000001d0: 8be3 6d3d dc38 96bc 0818 1bbe e133 103c
000001e0: 0b0c ac3d 6fdc 673d 99d4 24be 9632 98bd
000001f0: d1bf 1d3d 3044 c03d 780d c93d 5d42 42be
00000200: 41d3 413e 0246 203e 15aa e9bc eb3c 1dbe
00000210: 762e 163d f246 73bb 2f7d 623c 5c33 7f3e
00000220: cfe4 333d 6d3e 03bd 123c 45be 0a00 0c3d
00000230: 01cb 03be c5c1 fdbc 780f a6bd f01c e53d
00000240: 40ad afbd 79a9 d6bb 685f fabb d225 8b3d
00000250: 6152 c53d 0b95 c73d 8c91 a53c e388 cdbd
00000260: 10bd bd3d acc7 03be bc64 773e 9fc3 b0bd
00000270: e5d6 bf3c 1266 69bd 6bc4 7abd d89e 093e
00000280: 2c48 48be c030 85bd fe99 b0bc 1449 c1bd
00000290: d3dc 54bd a437 7f3e de79 9f3d d944 0f3e
000002a0: 80bb 04bd 12bd 12bd 6ef8 d23d 33b4 09be
000002b0: 8f98 73bd 6baa 18bd 363a 2ebe b3d7 a93d
000002c0: d1eb c4bd ddc2 413d 424c 3b3e b985 843b
000002d0: 267d 37bb e8fc 873d 0383 71bd 70d2 18bd
000002e0: 6a8d 163e 915c 25be 44b3 08be a646 a63d
000002f0: 3050 43bd 1305 d63d 37cb 97bd 071b a73d
00000300: 310b 0d3c 9a91 203e 1c08 c03d e85d 8fbd
00000310: 31fc b8bd 4b1e 9d3d 130f 8a3d 604e 473e
00000320: 56b9 41bd fc51 feba 1a99 843d b73f 67bd
00000330: b6d2 8dbc 1dc9 a63d 7d4c 3dbb 0c48 2f3e
00000340: 3004 8f3d a14c dc3d 4484 41bd 7774 adbd
00000350: 152e aebd f783 063d 61b2 e03c 5644 c8bc
00000360: b031 4f3c 27f2 c4bc f8fd 30be d731 1a3c
00000370: 6ffa a33c d522 a8bd 4d84 f8bd 0a23 b13d
00000380: 809f 3dbd 50f3 45bd c5e9 9bbc 7b5d e739
00000390: 2b65 6e3d eaef 46bd edbb 153e a3d3 84bd
000003a0: b169 f6bc c77d 813d 4e99 dc3c 9da7 a23d
000003b0: 253a 14bd 4daa 68be 478b 683e 711c 62bd
000003c0: 5e07 a33c 6557 cd3d 08d3 8f3e 301d 5bbd
000003d0: 1646 00bd 5fd0 c93d cbec 96bd 76b4 bfbc
000003e0: 4692 be3c 2cb2 383c 311c 3cbe 86f5 573d
000003f0: d823 983c 9e9a a53d b44a 01be 663b 5cbd

token_wV f4 [1, 64, 64]
0.045192216 -0.0046232943 -0.04366249 -0.018985346 0.01592317 0.011354854 0.026586892 0.03072968
0.0022759172 -0.02241905 0.022134587 0.009819168 0.05945111 0.057663657 -0.013987616 -0.040959455
0.019332126 0.021572798 0.033262264 4.4174627e-05 -0.038947385 0.014655615 0.007984742 0.022388628
0.02901779 0.041508432 -0.011720754 0.032535132 -0.020520126 -0.008400441 -0.05476592 0.019025296
-0.0049298117 0.0046013887 -0.0063417326 0.0058232946 0.013435393 0.00035685097 -0.028744677 0.002820738
0.020878093 -0.04656663 -0.002551927 -0.013322244 -0.02949666 -0.038894206 0.017966848 -0.020282878
0.00040860186 0.007584973 -0.007874275 0.0037959297 0.021213314 0.031693064 -0.0060891537 -0.056205027
0.05309376 -0.032624636 0.03508369 0.07011606 0.0088201165 -0.039312813 -0.03598089 0.04068145
-0.008531536 0.012625242 -0.020700509 0.0035738135 -0.040649187 0.0113956295 -0.01749225 0.006534836
0.008680136 -0.0326763 0.007393826 0.014011273 0.03960205 -0.007244636 -0.032065254 -0.010638958
0.010140014 -0.014524146 0.04661288 -0.007366131 0.000741911 -0.006482939 0.024595581 -0.018207181
0.0099907955 -0.009584918 0.042085946 -0.0072459434 -0.028807156 -0.023921147 -0.030258192 -0.024958223
0.03874549 -0.032378577 0.038265076 0.004892418 0.005194012 -0.05513694 0.018961765 0.0021672326
0.009048891 0.014274256 0.015661754 -0.009873854 -0.014289359 0.0019544323 -0.0033184562 0.0038748684
0.014859431 -0.05108722 0.019370893 0.031697012 -0.042406235 0.010740202 0.054087587 -0.00852085
0.02745184 0.015266325 -0.013724136 -0.009110431 -0.024753325 0.01794365 -0.011485135 0.06309517
0.03532795 -0.036627516 -0.0036578819 0.014711033 -0.011999374 0.007839143 0.014701418 -0.031654272
-0.05589108 -0.0049960203 -0.009106619 0.023077985 0.04700845 0.011078771 0.009922308 0.00061466376
-0.033249836 -0.034329213 -0.021378353 0.014928376 -0.035595816 0.0062079113 -0.034847762 -0.03186264
-0.0035405029 -0.014816686 -0.028730916 -0.010154978 -0.00032400864 -0.010411616 -0.07078347 -0.017200595
0.04093849 -0.024175823 0.048559032 0.05676875 -0.01501262 -0.030307604 0.022150112 0.04143484
-0.04351567 0.042890206 0.0019526144 0.019666718 0.007962316 0.029725553 -0.018132761 0.0028216245
0.0133093735 -0.010077077 0.021844653 -0.0050521023 -0.016916847 0.009542634 0.045587726 -0.000674629
0.013118946 0.0689282 0.012364382 0.0012149664 0.025806235 -0.0010824662 -0.013023985 0.014352804
0.048340395 -0.003329637 -0.009699368 -0.044427138 0.040638346 0.030073274 -0.021057252 -0.0007569161
0.0029047562 -0.057777073 0.012468956 0.043086987 0.018777495 0.029397225 -0.001367805 0.013689978
-0.03877014 0.021326425 -0.0014857099 -0.0043981746 -0.030502453 -0.005343156 0.009709728 -0.02722221
-0.025103241 0.004323411 -0.004127914 -0.029793536 0.013228882 -0.059227917 -0.08390175 0.052335538
0.023432203 -0.03850577 0.059244495 -0.008464284 -0.01429325 -0.014744787 0.008195939 0.051495906
0.007843065 0.012499085 0.025261106 -0.050305065 0.0064206417 0.010759605 0.006203 -0.08698962
-0.012441274 0.011245279 0.062215954 0.0021417886 0.008932329 0.016228799 0.030433992 0.03945892
0.0035092048 -0.0075539253 0.007808891 0.03886116 0.0034538838 0.0057759765 0.034550518 0.031290077
00000000: 791b 393d 017f 97bb 70d7 32bd 2887 9bbc
00000010: 4f71 823c b609 3a3c c1cc d93c cfbc fb3c
00000020: 8e27 153b 28a8 b7bc 9853 b53c 93e0 203c
00000030: 0283 733d ba30 6c3d 502c 65bc 1ac5 27bd
00000040: 685e 9e3c 70b9 b03c 033e 083d 2548 3938
00000050: 4b87 1fbd 1b1e 703c 6fd2 023c 5b68 b73c
00000060: b7b6 ed3c bf04 2a3d 6808 40bc 8f43 053d
00000070: d319 a8bc 01a2 09bc 3b52 60bd f0da 9b3c
00000080: 428a a1bb 3fc7 963b 4fce cfbb 56d1 be3b
00000090: 1f20 5c3c ba17 bb39 f579 ebbc 21dc 383b
000000a0: 8908 ab3c a7bc 3ebd 3b3e 27bb 8b45 5abc
000000b0: fba2 f1bc 884f 1fbd 362f 933c 4728 a6bc
000000c0: 9d39 d639 5d8b f83b 1a03 01bc 22c5 783b
000000d0: 8bc7 ad3c 96d0 013d 8687 c7bb 3e37 66bd
000000e0: d878 593d 69a1 05bd eab3 0f3d 0299 8f3d
000000f0: 4082 103c 7906 21bd b360 13bd 98a1 263d
00000100: dbc7 0bbc 1ada 4e3c 1d94 a9bc a436 6a3b
00000110: c37f 26bd bcb4 3a3c e84b 8fbc 2d22 d63b
00000120: 2137 0e3c 95d7 05bd e847 f23b 8a8f 653c
00000130: c235 223d 6964 edbb db56 03bd 064f 2ebc
00000140: 4d22 263c aff6 6dbc 26ed 3e3d 965f f1bb
00000150: ce7c 423a d56e d4bb ac7c c93c 3a27 95bc
00000160: 6fb0 233c 0f0a 1dbc 5062 2c3d 616f edbb
00000170: fcfc ebbc 48f6 c3bc 07e0 f7bc 3075 ccbc
00000180: 97b3 1e3d 669f 04bd d7bb 1c3d 9450 a03b
00000190: 8832 aa3b 46d7 61bd b455 9b3c 2108 0e3b
000001a0: cd41 143c 92de 693c 144d 803c f2c5 21bc
000001b0: ea1d 6abc ef15 003b 757a 59bb 81f1 7d3b
000001c0: f974 733c d540 51bd b5af 9e3c bad4 013d
000001d0: 29b2 2dbd acf7 2f3c f28a 5d3d 099b 0bbc
000001e0: aee2 e03c 9c1f 7a3c 33db 60bc eb43 15bc
000001f0: 7cc7 cabc 90fe 923c 262c 3cbc 0a38 813d
00000200: 0ab4 103d bc06 16bd 13b9 6fbb 8b06 713c
00000210: 0699 44bc c06f 003c 37de 703c e9a7 01bd
00000220: 0cee 64bd a8b5 a3bb ee33 15bc 0b0e bd3c
00000230: ef8b 403d bc83 353c 2d91 223c 6321 213a
00000240: fb30 08bd ca9c 0cbd a821 afbc 2696 743c
00000250: ebcc 11bd bc6b cb3b 87bc 0ebd 6682 02bd
00000260: c807 68bb afc1 72bc 195d ebbc 1161 26bc
00000270: b4df a9b9 7c95 2abc edf6 90bd 43e8 8cbc
00000280: 1eaf 273d 600c c6bc d6e5 463d 5986 683d
00000290: 7ef7 75bc a747 f8bc 2774 b53c 94b7 293d
000002a0: 7d3d 32bd a4ad 2f3d deee ff3a 191c a13c
000002b0: 6074 023c 0183 f33c 288b 94bc 01eb 383b
000002c0: 8f0f 5a3c 531a 25bc 8ff3 b23c 1b8c a5bb
000002d0: 3395 8abc b558 1c3c 32ba 3a3d 96d9 30ba
000002e0: d9f0 563c 3a2a 8d3d fa93 4a3c 823f 9f3a
000002f0: 9967 d33c 8ae1 8dba 8d62 55bc 0628 6b3c
00000300: 9400 463d 0a36 5abb 19ea 1ebc 3bf9 35bd
00000310: 6574 263d 3a5c f63c 4280 acbc c86b 46ba
00000320: b95d 3e3b a7a7 6cbd 984a 4c3c fb7b 303d
00000330: 43d3 993c 73d2 f03c eb47 b3ba ee4b 603c
00000340: 70cd 1ebd c1b4 ae3c 27bc c2ba 901e 90bb
00000350: 48e0 f9bc a415 afbb 8d15 1f3c 1d01 dfbc
00000360: 50a5 cdbc 66ab 8d3b 7443 87bb 9311 f4bc
00000370: f4bd 583c f998 72bd aed4 abbd ca5d 563d
00000380: e4f4 bf3c 3ab8 1dbd 5baa 723d c8ad 0abc
00000390: 3c2e 6abc 1e94 71bc 4248 063c 5fed 523d
000003a0: 3380 003c f6c8 4c3c 61f0 ce3c af0c 4ebd
000003b0: 3f64 d23b 0e49 303c 8942 cb3b 9d27 b2bd
000003c0: 7cd6 4bbc 1e3e 383c 28d6 7e3d 405d 0c3b
000003d0: e758 123c 42f2 843c b550 f93c ad9f 213d
000003e0: b0fa 653b eb86 f7bb bae1 ff3b e12c 1f3d
000003f0: 8e5a 623b 6744 bd3b d884 0d3d 062a 003d

pos_embedding f4 [1, 5, 64]
-0.02885969 -0.01172022 -0.0014113585 0.022788174 0.028839167 -0.0023229732 0.009258288 0.007214014
0.021777801 0.02958914 -0.020345494 0.012639102 -0.024159478 0.015784366 0.035302814 -0.020876156
-0.01985955 -0.021913012 0.028154762 -0.0053164447 0.04918827 -0.025419123 -0.027960604 0.031402446
-0.024306698 -0.011488851 -0.015517922 0.020487055 -0.025752148 0.026891045 0.020826533 0.02958059
-0.016299054 0.023609605 0.020580972 -0.013760255 -0.021553872 0.012848485 0.019398982 0.02888013
0.02489837 0.0032804043 -0.010526902 0.017927414 -0.02806326 -0.02146296 -0.004407505 -0.013513127
0.036373053 -0.02003224 -0.02966099 -0.01584311 0.024346096 -0.0033936584 0.002729638 0.032848638
-0.016763262 -0.011825833 -0.018893413 0.04150119 0.027398815 0.01966434 0.032072432 0.053381152
0.0022474674 -0.013487288 0.021912636 -0.00657289 -0.022782747 0.017518153 -0.009147366 0.010341255
0.028013857 0.011292467 -0.028224653 -0.014693525 -0.016648833 -0.027773088 -0.016035184 0.012714415
0.013820235 0.0063198125 0.024382083 0.02152147 0.016606893 -0.009011972 -0.0012243085 -0.011039776
-0.028451137 0.008205658 0.009167673 -0.030567987 0.014584958 0.009038198 -0.004408681 -0.0004671245
-0.017983144 0.011145275 -0.0010868462 -0.009982765 -0.020214329 -0.0075883362 0.014496369 -0.014561124
0.004781949 0.015299318 -0.0028270185 0.0014561658 -0.009766517 0.0009825025 -0.03120846 -0.006274745
-0.008090601 -0.016869606 -0.0031952392 -0.011984529 -0.0005575594 -0.00636129 -0.0055921776 -0.023707198
-0.012140355 0.0039072493 0.0047554276 0.00989091 -0.013991238 0.015648756 0.0005868634 0.0012816812
0.010850466 -0.006868671 0.0034725168 0.003604412 -0.0013558844 -0.011317817 -0.008068298 -0.014387614
-0.010304676 0.014870748 -0.012729085 -0.0030772402 -0.029275788 -0.027257424 -0.0073208264 0.004932993
-0.007988354 -0.0029639248 0.010557046 0.015295541 -0.008184628 -2.011175e-05 -0.0050111534 -0.011930651
-0.015203628 -0.009287734 0.005317003 0.002636557 -0.008984891 0.0035402996 -0.016424462 0.009481153
0.004035544 0.002906887 -0.005437587 0.0052646752 -0.024920393 -0.012566966 0.0015717052 -0.0037640738
0.018510029 -0.022822853 -0.0026792376 0.008775066 -0.0019450885 -0.01316017 -0.03148447 0.0035181795
0.009166117 -0.009228707 -0.0018864035 -0.0076234005 0.016772479 -0.0015837441 0.0069961213 -0.021242319
-0.0051146746 -0.0076477057 0.012802094 0.026535291 0.013258531 -0.0035543977 -0.0041004186 -0.005016734
-0.00046858517 -0.0012684419 -0.004329865 0.003233053 -0.033914514 -0.007843472 -0.0078945 -0.0054708924
0.01867354 0.017819837 -0.010922807 -0.0076527875 -0.031782568 -0.028863423 -0.0009774157 -0.0023798158
0.019368982 0.0063487375 -0.003907239 0.03382754 0.019154882 0.012277643 -0.004982106 -0.025405433
-0.010434172 0.021594482 0.0020799723 -0.00083929824 -0.028755058 0.0008447801 -0.004227514 -0.031422555
-0.00091607485 -0.011126643 -0.021561941 -0.009053557 -0.03739548 -0.0064717755 0.0115238745 -0.04587948
0.0030235855 -0.0062155845 0.0060270843 -0.009566086 0.013707015 0.0019214831 -0.023390902 0.02446966
-0.014712099 0.0019556857 0.0019169789 -0.007189868 0.00753817 -0.014050598 0.0138409585 -0.03483565
-0.0178506 0.014652147 0.0140295625 -0.025429543 -0.0018065753 -0.0051219584 -0.01296638 -0.026206408
00000000: 286b ecbc 2a06 40bc 55fd b8ba 44ae ba3c
00000010: 1e40 ec3c 063d 18bb 13b0 173c 8963 ec3b
00000020: 5c67 b23c ed64 f23c 98ab a6bc 3c14 4f3c
00000030: 19ea c5bc 374e 813c af99 103d 7904 abbc
00000040: 7fb0 a2bc eb82 b3bc d1a4 e63c 9235 aebb
00000050: a479 493d c43b d0bc a30d e5bc da9f 003d
00000060: d71e c7bc bc3b 3cbc e23e 7ebc 78d4 a73c
00000070: 2bf6 d2bc 9c4a dc3c 689c aa3c fe52 f23c
00000080: 9885 85bc ee68 c13c 6d99 a83c b172 61bc
00000090: bf91 b0bc 7482 523c 9dea 9e3c 0696 ec3c
000000a0: abf7 cb3c 0dfc 563b 0779 2cbc 83dc 923c
000000b0: ece4 e5bc 17d3 afbc d56c 90bb 2a66 5dbc
000000c0: e9fb 143d a71a a4bc 9bfb f2bc 69c9 81bc
000000d0: 7771 c73c 2468 5ebb bae3 323b 4b8c 063d
000000e0: 1c53 89bc 23c1 41bc 5cc6 9abc 27fd 293d
000000f0: 7b73 e03c 1c17 a13c 625e 033d 32a6 5a3d
00000100: 3f4a 133b c9f9 5cbc 2182 b33c 6661 d7bb
00000110: e2a2 babc 3b82 8f3c d5de 15bc 5e6e 293c
00000120: 517d e53c 0a04 393c 6337 e7bc 1cbd 70bc
00000130: 2263 88bc 6384 e3bc 385c 83bc 1f50 503c
00000140: 446e 623c 6e16 cf3b efbc c73c cb4d b03c
00000150: 2e0b 883c f3a6 13bc fa78 a0ba 2de0 34bc
00000160: 5c12 e9bc 0671 063c 0234 163c b769 fabc
00000170: bff5 6e3c f314 143c b276 90bb 64e8 f4b9
00000180: 6351 93bc ac9a 363c 8274 8eba c08e 23bc
00000190: 8598 a5bc 94a7 f8bb 2e82 6d3c c891 6ebc
000001a0: e5b1 9c3b fea9 7a3c 8045 39bb d1dc be3a
000001b0: be03 20bc 50c7 803a e2a8 ffbc 609c cdbb
000001c0: 718e 04bc 2132 8abc 3867 51bb c25a 44bc
000001d0: 2e29 12ba 5e72 d0bb 963e b7bb 9935 c2bc
000001e0: 57e8 46bc 6208 803b 6bd3 9b3b 7c0d 223c
000001f0: 813b 65bc d231 803c bcd7 193a 16fe a73a
00000200: 27c6 313c 9712 e1bb 2a93 633b 0038 6c3b
00000210: eeb7 b1ba 5d6e 39bc e530 04bc 07ba 6bbc
00000220: f2d4 28bc 70a4 733c a78d 50bc 86ab 49bb
00000230: c7d3 efbc f64a dfbc 8be3 efbb f2a4 a13b
00000240: 96e1 02bc 683e 42bb 76f7 2c3c 269a 7a3c
00000250: d118 06bc a7b5 a8b7 9a34 a4bb c778 43bc
00000260: a318 79bc 942b 18bc 413a ae3b 16ca 2c3b
00000270: 5d35 13bc 5f04 683b 988c 86bc d756 1b3c
00000280: 993c 843b 7981 3e3b c92d b2bb 4c83 ac3b
00000290: da25 ccbc ade5 4dbc ad01 ce3a aeae 76bb
000002a0: 58a2 973c fef6 babc 2696 2fbb 4bc5 0f3c
000002b0: 57f2 feba c19d 57bc dcf5 00bd 4291 663b
000002c0: 7b2d 163c 0134 17bc 3341 f7ba b8cd f9bb
000002d0: 7066 893c a295 cfba b83f e53b 5f04 aebc
000002e0: 0099 a7bb 9b99 fabb e0bf 513c 8a60 d93c
000002f0: 4f3a 593c e6f0 68bb ce5c 86bb 6a63 a4bb
00000300: 70ac f5b9 d941 a6ba 8ae1 8dbb a1e1 533b
00000310: f2e9 0abd e881 00bc ef57 01bc 2c45 b3bb
00000320: 40f9 983c e8fa 913c 93f5 32bc 3cc4 fabb
00000330: 702e 02bd fc72 ecbc a11c 80ba aff6 1bbb
00000340: b3ab 9e3c 1209 d03b 4c08 80bb bf8e 0a3d
00000350: b3ea 9c3c 2b28 493c ef40 a3bb 0e1f d0bc
00000360: 17f4 2abc e9e6 b03c 2550 083b 5a04 5cba
00000370: ba8f ebbc 3c74 5d3a f586 8abb f0b4 00bd
00000380: be24 70ba 864c 36bc aba2 b0bc 5f55 14bc
00000390: 012c 19bd 3011 d4bb a2ce 3c3c 1fec 3bbd
000003a0: 5927 463b 1aac cbbb d97e c53b 13bb 1cbc
000003b0: 6393 603c 46da fb3a 479e bfbc 9974 c83c
000003c0: 040b 71bc f62a 003b 2343 fb3a fc98 ebbb
000003d0: c102 f73b 7b34 66bc 30c5 623c d4af 0ebd
000003e0: 6c3b 92bc 8f0f 703c 40dc 653c 9e51 d0bc
000003f0: 9cca ecba 1ad6 a7bb f170 54bc d2ae d6bc

cls_token f4 [1, 1, 64]
-0.011929404 -0.00353296 0.011728798 0.0031477204 0.00027403218 -0.0014042 -0.0047882595 0.009703547
0.013348656 0.0071631894 -0.010831865 0.003310865 -0.0061202883 0.014403574 0.012482086 0.010001033
-0.01324181 -0.0035576506 0.0045134714 -0.0076217824 0.0060765073 0.004085268 -0.012539421 0.0079782605
-0.0041548717 0.0031648832 -0.019230058 -0.0100783 -0.00313985 0.007874507 0.013446333 -0.009763326
-0.0055890926 0.0052244086 0.019624462 -0.015435431 -0.0063008782 0.013672526 0.014562912 0.014592366
0.015253004 -0.007227451 -0.008469818 -0.0038743888 -0.007953435 -0.0066854395 -0.0024938707 -0.010754044
0.011301333 -0.0035585242 -0.0004014324 -0.008865468 0.008075182 0.0024035708 -0.0059812814 0.016128855
-0.0045675016 -0.0023620266 -0.0027627451 0.013434605 0.0004062907 0.0038834854 0.0054843207 -0.0051548732
00000000: 8c73 43bc 3c89 67bb 252a 403c fc49 4e3b
00000010: faab 8f39 220d b8ba d5e6 9cbb a0fb 1e3c
00000020: 52b4 5a3c 30b9 ea3b 2278 31bc 19fb 583b
00000030: b38c c8bb f8fc 6b3c aa81 4c3c 5fdb 233c
00000040: 2df4 58bc 7927 69bb bee5 933b 25c0 f9bb
00000050: 701d c73b b6dd 853b 2572 4dbc 40b7 023c
00000060: 9725 88bb ee69 4f3b 5b88 9dbc 741f 25bc
00000070: f1c5 4dbb 1404 013c 024e 5c3c 5bf6 1fbc
00000080: b524 b7bb 8431 ab3b 7bc3 a03c e4e4 7cbc
00000090: 9977 cebb bb02 603c 4899 6e3c d214 6f3c
000000a0: bce7 793c 41d4 ecbb fec4 0abc 75e9 7dbb
000000b0: 204f 02bc 8811 dbbb 3570 23bb bb31 30bc
000000c0: 3a29 393c 2136 69bb 5877 d2b9 7840 11bc
000000d0: c54d 043c 3a85 1d3b a0fe c3bb a920 843c
000000e0: fbaa 95bb 3bcc 1abb 2c0f 35bb d11c 5c3c
000000f0: 6a03 d539 1382 7e3b d1b5 b33b 36ea a8bb

conv3d_features.0.weight f4 [8, 1, 3, 3, 3]
0.21073474 -0.03100049 0.11409529 0.15617399 -0.105713464 -0.17813914 0.13393825 0.068672165
0.1119764 0.048336048 -0.20001155 -0.1293512 -0.10633409 -0.14224541 0.046935122 -0.16250424
0.14433819 -0.10981369 -0.08778087 0.03403416 0.014588163 0.13867617 -0.03994987 0.09594508
0.047344293 -0.1091187 -0.05594677 0.10688848 0.021337878 -0.17681563 0.038321737 -0.08055073
-0.14468957 0.12600638 -0.010558414 0.014147773 0.107841715 -0.2041562 -0.09627046 -0.076370634
0.049727265 -0.048407216 0.1118312 -0.19497189 0.1734378 0.033256933 -0.12133554 -0.018166173
-0.11432108 0.042843305 -0.160926 -0.13639599 0.112328865 0.12954782 -0.08081554 -0.11715987
-0.025815794 -0.20940258 -0.099443644 0.16370912 -0.17056693 0.13238093 -0.004020151 0.048235834
-0.18705738 -0.15731394 -0.050084308 -0.031422403 -0.03715243 0.052275423 -0.0057238387 0.13680495
-0.15670988 0.10549302 -0.09119021 -0.09574696 0.05606692 0.10253142 -0.09426077 0.026756523
0.13413857 -0.03787533 -0.0035885575 -0.02799364 0.0698671 0.18676196 0.04108639 -0.048318945
-0.09861559 -0.21444502 0.19111714 -0.08976342 0.094018534 -0.066769995 -0.032643322 -0.114752226
-0.21010768 0.07520389 0.074183024 -0.12737568 0.02324109 -0.016452333 0.06651124 -0.16263263
0.06782863 0.07967685 0.046241514 -0.03344576 0.096553385 -0.15153138 0.08518965 0.018162688
-0.10589773 0.03718937 0.09752725 -0.061696745 -0.1109233 -0.17829351 0.21569376 -0.1800694
0.10367556 -0.027028544 -0.13156106 -0.1095546 0.09010709 -0.1017405 0.09531251 0.06130767
0.03266311 0.18530142 -0.16289404 0.14865188 0.15589868 -0.19387273 -0.03485429 -0.10858344
-0.1696596 0.03630518 0.10210468 -0.008266943 0.06123822 -0.07003084 -0.068587676 0.105090074
0.14831625 0.05702456 -0.16047394 0.19180274 -0.14298828 -0.105727226 0.18186149 -0.13237172
-0.15834929 -0.09333508 0.1042514 0.04644616 -0.069689214 0.09913422 0.0022575636 -0.067190275
0.047095083 0.04325919 -0.12768453 0.11861502 -0.15449014 0.08966307 -0.114918165 -0.023392355
0.07450922 -0.059524894 -0.02283709 0.06816775 -0.05754197 0.109354526 0.17558229 -0.14636911
-0.111788854 -0.17556149 -0.005120428 0.20363913 -0.07665612 0.20918816 -0.1692376 0.16167933
-0.04990489 -0.03676692 -0.023115067 -0.1471017 0.16768087 0.14294878 0.0038680022 -0.17583561
0.034687206 0.041198846 -0.07941543 -0.08894048 -0.14878169 -0.16300444 -0.13267787 0.16405055
0.020003283 0.12305662 0.1395714 -0.13798967 -0.07103108 0.05860678 -0.16986859 -0.060169738
0.098557115 0.109663434 0.09550871 0.05460551 0.089627266 0.02782594 0.19410825 0.1212108
00000000: d9ca 573e bdf4 fdbc cbaa e93d 13ec 1f3e
00000010: 4d80 d8bd 1b6a 36be 1c27 093e fea3 8c3d
00000020: e253 e53d 05fc 453d d4cf 4cbe a474 04be
00000030: b0c5 d9bd c8a8 11be 0b3f 403d 8367 26be
00000040: 64cd 133e 00e6 e0bd 75c6 b3bd 6767 0b3d
00000050: 3103 6f3c 2001 0e3e 7aa2 23bd db7e c43d
00000060: 17ec 413d a079 dfbd 7128 65bd 59e8 da3d
00000070: c6cc ae3c 280f 35be 41f7 1c3d c8f7 a4bd
00000080: 8129 14be d107 013e 33fd 2cbc 10cc 673c
00000090: 1edc dc3d 530e 51be 7229 c5bd 3568 9cbd
000000a0: d1ae 4b3d a546 46bd c207 e53d b6a6 47be
000000b0: ae99 313e 6c38 083d c57e f8bd 3ad1 94bc
000000c0: 2c21 eabd 767c 2f3d c9c9 24be 64ab 0bbe
000000d0: ad0c e63d 2fa8 043e 9e82 a5bd 84f1 efbd
000000e0: a57b d3bc a16d 56be 1ca9 cbbd 5da3 273e
000000f0: 19a9 2ebe de8e 073e 79bb 83bb f092 453d
00000100: f88b 3fbe e816 21be 3425 4dbd c7b4 00bd
00000110: 252d 18bd c11e 563d 0a8f bbbb 9916 0c3e
00000120: 8e78 20be b90c d83d efc1 babd fb16 c4bd
00000130: 6da6 653d fefb d13d ca0b c1bd 7f30 db3c
00000140: 9f5b 093e 2923 1bbd 012e 6bbb eb52 e5bc
00000150: 7b16 8f3d 873e 3f3e 344a 283d 16ea 45bd
00000160: f8f6 c9bd 7a97 5bbe 36b4 433e e2d5 b7bd
00000170: ca8c c03d b5be 88bd 01b5 05bd 3703 ebbd
00000180: 7826 57be 7f04 9a3d 45ed 973d c56e 02be
00000190: 1964 be3c 0bc7 86bc 0c37 883d 2b89 26be
000001a0: bde9 8a3d 9e2d a33d be67 3d3d 6cfe 08bd
000001b0: c8bd c53d 0b2b 1bbe e977 ae3d ebc9 943c
000001c0: e9e0 d8bd e153 183d 5ebc c73d bab5 7cbd
000001d0: c12b e3bd 9392 36be d3de 5c3e 1d64 38be
000001e0: da53 d43d f76a ddbc f1b7 06be 2a5e e0bd
000001f0: 118a b83d 535d d0bd 3533 c33d c01d 7b3d
00000200: c1c9 053d a8bf 3d3e b2cd 26be 3338 183e
00000210: e7a3 1f3e 9386 46be 5fc3 0ebd ff60 debd
00000220: 3fbb 2dbe beb4 143d 421c d13d 1272 07bc
00000230: eed4 7a3d 546c 8fbd b277 8cbd 7739 d73d
00000240: 37e0 173e 9692 693d 4853 24be f067 443e
00000250: 856b 12be 8487 d8bd e639 3a3e 748c 07be
00000260: 5126 22be 7626 bfbd c281 d53d 543e 3e3d
00000270: 38b9 8ebd e206 cb3d a2f3 133b 0e9b 89bd
00000280: c6e6 403d 8c30 313d bcbf 02be 6eec f23d
00000290: aa32 1ebe 46a1 b73d 375a ebbd 53a1 bfbc
000002a0: 4a98 983d 60d0 73bd d914 bbbc 899b 8b3d
000002b0: 21b1 6bbd 44f5 df3d d8cb 333e c9e1 15be
000002c0: 8ef1 e4bd 64c6 33be 43c9 a7bb c786 503e
000002d0: e2fd 9cbd 6c35 563e 9f4c 2dbe 448f 253e
000002e0: 1269 4cbd e998 16bd cf5b bdbc d4a1 16be
000002f0: 89b4 2b3e 2a61 123e 4f7e 7d3b 400e 34be
00000300: 2c14 0e3d 1fc0 283d 8fa4 a2bd 6d26 b6bd
00000310: 3a5a 18be a3ea 26be b5dc 07be defc 273e
00000320: eddd a33c 1c05 fc3d ceeb 0e3e 2a4d 0dbe
00000330: be78 91bd aa0d 703d 08f2 2dbe 8b74 76bd
00000340: 50d8 c93d 3997 e03d 129a c33d 07aa 5f3d
00000350: 808e b73d 3af3 e33c 50c4 463e 5e3d f83d

conv3d_features.0.bias f4 [8]
-0.030989803 0.027805384 -0.0006898898 -0.07179829 -0.08396688 0.16160735 0.08920521 0.0075876107
00000000: 54de fdbc 1ec8 e33c b9d9 34ba fb0a 93bd
00000010: d4f6 abbd 667c 253e 39b1 b63d 7ea1 f83b

conv3d_features.1.weight f4 [8]
0.98733646 0.9777817 0.9748315 1.0830282 1.000315 1.0788033 0.9687771 0.9582838
00000000: 15c2 7c3f e74f 7a3f 8f8e 793f aba0 8a3f
00000010: 520a 803f 3a16 8a3f c701 783f 1652 753f

conv3d_features.1.bias f4 [8]
0.014466906 0.0015817706 0.08297648 0.04968241 0.035057887 0.044735774 -0.031040747 -0.0020076062
00000000: 9a06 6d3c 6a53 cf3a 93ef a93d c87f 4b3d
00000010: dc98 0f3d dc3c 373d 2a49 febc 0b92 03bb

conv3d_features.1.running_mean f4 [8]
-0.024931822 0.030257985 0.0013499883 -0.070835754 -0.083485134 0.1614088 0.087763526 0.002055826
00000000: d23d ccbc 98df f73c 17f2 b03a 5612 91bd
00000010: 41fa aabd 5948 253e 5dbd b33d 09bb 063b

conv3d_features.1.running_var f4 [8]
0.40355265 0.23413844 0.29783353 0.17146645 0.2649196 0.24599384 0.2046865 0.45296025
00000000: 749e ce3e fdc1 6f3e a37d 983e e794 2f3e
00000010: 8ba3 873e cfe5 7b3e 5699 513e 68ea e73e

conv2d_features.0.weight f4 [64, 224, 3, 3]
-0.018186357 -0.028448328 -0.011166547 -0.053569574 -0.01398708 -0.020917308 -0.05652658 -0.03508862
-0.058994923 0.00053799606 0.0065999515 0.03601583 -0.0010912874 0.014408991 -0.00013772564 0.012882258
-0.0069187237 0.012444731 -0.037927497 -0.0076621026 -0.017193113 -0.030138193 -0.010410664 -0.011992325
-0.038034454 -0.051537015 -0.02188575 0.0036367655 0.015707936 0.027405716 0.013767978 -0.0035752647
0.014927952 -0.023572097 -0.024664575 -0.0059233303 0.025132123 0.022580674 0.017425988 -0.003215429
0.017332997 0.04098563 0.019121863 0.030066177 0.03413251 -0.035739522 -0.020609738 -0.016337212
-0.0140285045 -0.0064741424 -0.0012904202 -0.0015302803 -0.018058091 -0.014078215 -0.0017103953 0.025194392
0.021173358 0.01399771 0.01766661 0.0007999055 0.01278003 -0.01656022 0.006740364 -0.007931217
-0.0019295707 -0.02003314 0.030486614 0.036259532 0.009488548 0.017157603 0.017945334 0.018446999
0.016327346 -0.005648981 -0.011506061 0.008885706 0.012338585 0.012519 0.016778532 -0.027640436
-0.020896472 0.0019715002 -0.024426349 0.0060690735 -0.024631005 0.016153976 0.03301625 -0.011714261
0.050723985 0.020849908 -0.035148073 -0.002894665 -0.007355838 -0.04790813 -0.022037113 -0.01962801
-0.04950994 -0.04979587 -0.0147832 -0.0006997055 0.028107861 -0.0024469635 -0.019316372 0.011241532
-0.030225879 0.0021538613 0.0118206795 -0.0005492614 -0.011349532 0.035602022 0.040975336 0.0057508163
0.033133034 0.04037001 0.033044226 0.03073964 0.046304755 -0.011195485 -0.015032531 -0.0044451356
0.032135088 0.02572922 -0.014435012 0.033687588 0.022356229 -0.034371838 0.016158914 0.03208396
-0.0013544015 0.026034918 0.013535086 0.0075887092 0.012902628 -0.005503474 0.003171088 -0.009444494
-0.04832375 0.0016578438 -0.047335405 -0.060284358 -0.010246922 -0.06217169 -0.046363387 -0.0314365
-0.01344267 -0.007603061 0.014639159 -0.020152176 -0.030803254 0.023570623 -0.010649678 -0.02917695
0.005814187 0.002690218 0.0071660937 0.04853515 0.011131474 0.0133556025 0.014964828 0.011405883
0.003023722 -0.02638846 -0.044510722 -0.06645871 -0.069009416 -0.0140164895 -0.020777522 -0.015296573
-0.03749133 0.0023330364 -0.009588453 0.036690675 0.093278974 0.053459216 0.032199807 0.074138194
0.058985014 0.048361063 0.049769867 0.02515673 -0.06301044 -0.042232037 -0.03398083 -0.06872195
-0.029480685 -0.021734547 -0.06155006 -0.008842762 0.014011743 0.057584345 0.047433853 0.017762335
0.03511363 0.04082829 0.027250843 0.023915254 0.026685176 0.03846211 -0.028409867 -0.003133478
0.015511561 0.01296485 0.030514993 0.0410202 -0.023064109 0.019606154 0.014651616 0.01189696
0.044582456 -0.0016313255 -0.012017881 0.029034479 -0.019449562 0.018439423 0.014458338 -0.018724564
0.011355819 -0.009990129 -0.019654434 0.019577805 -0.020572023 0.0035381769 0.040688112 0.0017537738
0.03832194 -0.0013726801 -0.010058399 -0.018053414 0.005139606 0.005436798 -0.033712685 -0.031667065
-0.0058636856 0.0023404544 -0.041967165 -0.0009882903 0.035019517 -0.038817756 0.004555271 0.029595662
-0.03324652 0.004439879 0.0014958796 0.048556667 0.02238847 -0.010641978 0.029493948 0.027796222
0.018728571 0.07981357 0.035587925 0.039516825 0.05941813 0.04338035 0.05314649 0.013828098
00000000: 8efb 94bc 780c e9bc e5f3 36bc c56b 5bbd
00000010: 112a 65bc c65a abbc 6a88 67bd 16b9 0fbd
00000020: a9a4 71bd 4e08 0d3a 6844 d83b 5685 133d
00000030: 8709 8fba b013 6c3c 726a 10b9 1b10 533c
00000040: 76b6 e2bb fce4 4b3c dd59 1bbd 6012 fbbb
00000050: 92d8 8cbc 5fe4 f6bc 7d91 2abc 757b 44bc
00000060: 04ca 1bbd 7a18 53bd bf49 b3bc cd56 6e3b
00000070: eead 803c f481 e03c 1693 613c fd4e 6abb
00000080: 5e94 743c 451a c1bc 5d0d cabc 7f18 c2bb
00000090: e2e1 cd3c 1bfb b83c f2c0 8e3c f2b9 52bb
000000a0: eefd 8d3c 8ce0 273d 74a5 9c3c 584d f63c
000000b0: 88ce 0b3d 9b63 12bd c1d5 a8bc 9ed5 85bc
000000c0: d0d7 65bc 0b25 d4bb 5123 a9ba b093 c8ba
000000d0: 90ee 93bc 50a8 66bc 582f e0ba 7864 ce3c
000000e0: c073 ad3c a756 653c 91b9 903c c0b0 513a
000000f0: 5563 513c 4ca9 87bc 45de dc3b eff1 01bc
00000100: a6e9 fcba 8a1c a4bc 10bf f93c e084 143d
00000110: db75 1b3c 1a8e 8c3c 1802 933c 291e 973c
00000120: edc0 853c 161b b9bb eb83 3cbc 5a95 113c
00000130: c727 4a3c 7e1c 4d3c 2273 893c 326e e2bc
00000140: 142f abbc 4934 013b c419 c8bc 14df c63b
00000150: f6c6 c9bc 5855 843c 0c3c 073d 2ced 3fbc
00000160: f4c3 4f3d 6dcd aa3c 6df7 0fbd 6cb4 3dbb
00000170: 3e09 f1bb 513b 44bd 2d87 b4bc ecca a0bc
00000180: efca 4abd c1f6 4bbd 3c35 72bc 716c 37ba
00000190: 7542 e63c 3c5d 20bb 5e3d 9ebc 672e 383c
000001a0: 439c f7bc cc27 0d3b 86ab 413c 4ffc 0fba
000001b0: 63f3 39bc 6dd3 113d c1d5 273d 5871 bc3b
000001c0: 81b6 073d 065b 253d 6259 073d b3d1 fb3c
000001d0: 0eaa 3d3d 446d 37bc 014b 76bc 80a8 91bb
000001e0: 15a0 033d 16c6 d23c d480 6cbc fffb 093d
000001f0: 6924 b73c 7cc9 0cbd b35f 843c 786a 033d
00000200: 2c86 b1ba 2e47 d53c 44c2 5d3c b5aa f83b
00000210: 8b65 533c 7c56 b4bb 07d2 4f3b 14bd 1abc
00000220: 20ef 45bd 024c d93a c5e2 41bd bbec 76bd
00000230: b5e2 27bc bea7 7ebd 89e7 3dbd 8fc3 00bd
00000240: a53e 5cbc 1923 f9bb 15d9 6f3c 2d16 a5bc
00000250: 1b57 fcbc 2e17 c13c fd7b 2ebc 8004 efbc
00000260: f084 be3b 5e4e 303b 8dd1 ea3b cbcc 463d
00000270: c960 363c 75d1 5a3c 0a2f 753c bedf 3a3c
00000280: a329 463b 9d2c d8bc e050 36bd 811b 88bd
00000290: cf54 8dbd 6ba5 65bc 9f35 aabc 7a9e 7abc
000002a0: 8290 19bd dbe5 183b e318 1dbc f648 163d
000002b0: 0c09 bf3d 0df8 5a3d f2e3 033d c4d5 973d
000002c0: 459a 713d 4016 463d 7ddb 4b3d 7d15 ce3c
000002d0: 9e0b 81bd 80fb 2cbd 7c2f 0bbd 18be 8cbd
000002e0: 7a81 f1bc a60c b2bc ea1b 7cbd 3be1 10bc
000002f0: 8291 653c 90dd 6b3d 004a 423d 5182 913c
00000300: 4fd3 0f3d 913b 273d 293d df3c ece9 c33c
00000310: df9a da3c 728a 1d3d cfbb e8bc 0a5b 4dbb
00000320: 3424 7e3c 866a 543c 94fa f93c cc04 283d
00000330: f1f0 bcbc 169d a03c 550d 703c 78eb 423c
00000340: 189c 363d 33d2 d5ba a5e6 44bc b7d9 ed3c
00000350: b054 9fbc 460e 973c aae2 6c3c 4264 99bc
00000360: c20d 3a3c a3ad 23bc 5602 a1bc a261 a03c
00000370: a986 a8bc c2e0 673b 94a8 263d e2de e53a
00000380: 77f7 1c3d 80eb b3ba fccb 24bc c1e4 93bc
00000390: 246a a83b 2b27 b23b 5016 0abd 53b5 01bd
000003a0: 2924 c0bb 4f62 193b c3e5 2bbd 8589 81ba
000003b0: a070 0f3d 5eff 1ebd 6244 953b 9a72 f23c
000003c0: 812d 08bd 687c 913b 6411 c43a 5be3 463d
000003d0: 0668 b73c b15b 2ebc 4b9d f13c e7b4 e33c
000003e0: a96c 993c 4c75 a33d a5c4 113d 65dc 213d
000003f0: 6d60 733d 98af 313d 22b0 593d 3f8f 623c

conv2d_features.0.bias f4 [64]
-0.021995682 -0.01925822 -0.017988438 -0.009552861 0.0014684043 0.01687874 -8.611665e-05 -0.018239716
0.011614846 0.0074217664 -0.008968392 0.004180283 -0.002056407 0.0025331094 -0.013855822 -0.012514911
-0.0061529237 -0.013464978 -0.014265176 0.0032551563 0.0016971842 -0.0025931783 -0.0016330798 0.00549172
-0.0111956755 0.0017855564 -0.020367255 -0.017286891 0.004923952 0.021813903 0.01580335 0.012679446
-0.005199241 -0.01566894 0.01847316 0.0145204095 0.0044456217 -0.008032052 0.014758402 0.018250538
0.00025631336 -0.011086646 0.017386679 0.00924653 -0.017965728 -0.018883659 -0.00060244516 0.017834412
-0.015579244 0.00728041 0.013232687 -0.0074095526 0.01703081 -0.012858102 -0.021678511 0.006894784
-0.008364384 -0.010571575 0.0038369433 0.0068228496 0.00016875082 -0.014025855 -0.010218175 -0.0027299554
00000000: 4a30 b4bc 6ac3 9dbc 7d5c 93bc 9a83 1cbc
00000010: 7977 c03a 4945 8a3c 8699 b4b8 756b 95bc
00000020: 324c 3e3c 4a32 f33b 2af0 12bc c1fa 883b
00000030: c9c4 06bb 8602 263b 8803 63bc 570b 4dbc
00000040: 779e c9bb 369c 5cbc 7cb8 69bc 7654 553b
00000050: 0d74 de3a 50f2 29bb 110d d6ba e3f3 b33b
00000060: 116e 37bc 5509 ea3a 3bd9 a6bc 3d9d 8dbc
00000070: 1a59 a13b 12b3 b23c 0776 813c 73bd 4f3c
00000080: 655e aabb 265c 80bc 0655 973c 03e7 6d3c
00000090: 94ac 913b de98 03bc 39cd 713c 2782 953c
000000a0: cc61 8639 c3a4 35bc 826e 8e3c c27e 173c
000000b0: dd2c 93bc e7b1 9abc 69ed 1dba 7919 923c
000000c0: 1640 7fbc 8190 ee3b e9cd 583c d5cb f2bb
000000d0: 3284 8b3c caaa 52bc 2297 b1bc a4ed e13b
000000e0: c50a 09bc 6634 2dbc 3a75 7b3b 3692 df3b
000000f0: b4f2 3039 b3cc 65bc 226a 27bc 0de9 32bb

conv2d_features.1.weight f4 [64]
0.9953224 1.0019234 1.0084282 1.0108489 0.9773836 0.99976397 1.0203406 1.0212255
1.0117893 1.0073498 1.0287062 1.0426517 1.0160582 0.975928 0.9876508 0.99763304
0.9923898 0.9944976 1.0120634 0.9980099 1.018428 0.9792149 1.0159729 0.9812389
0.9973205 0.9874569 0.9931832 1.0016421 0.983865 1.0127969 1.0088472 1.0032166
1.005335 1.0110503 1.0081795 0.99677837 1.0019178 1.0049787 1.0207018 1.0139775
1.0173903 1.0496048 1.0017534 1.017278 0.97878826 1.0032171 0.99935967 1.0017686
1.0193925 1.0052859 1.0408295 0.9774845 0.966866 0.9949996 0.99032265 1.0110275
1.0128483 1.001191 1.0456879 0.9911265 1.0218979 0.9948392 0.9925751 0.9921589
00000000: 73cd 7e3f 073f 803f 2d14 813f 7f63 813f
00000010: d035 7a3f 88f0 7f3f 859a 823f 84b7 823f
00000020: 5082 813f d7f0 803f a5ac 833f 9c75 853f
00000030: 320e 823f 6bd6 793f afd6 7c3f e164 7f3f
00000040: 420d 7e3f 6597 7e3f 4b8b 813f 947d 7f3f
00000050: d95b 823f d4ad 7a3f 660b 823f 7932 7b3f
00000060: 6550 7f3f fac9 7c3f 4141 7e3f cf35 803f
00000070: 94de 7b3f 54a3 813f e821 813f 6769 803f
00000080: d1ae 803f 196a 813f 070c 813f de2c 7f3f
00000090: d83e 803f 24a3 803f 5ba6 823f 04ca 813f
000000a0: d839 823f 7359 863f 7539 803f 2a36 823f
000000b0: de91 7a3f 6b69 803f 09d6 7f3f f439 803f
000000c0: 747b 823f 35ad 803f e739 853f 6d3c 7a3f
000000d0: 8884 773f 4bb8 7e3f c985 7d3f 5969 813f
000000e0: 03a5 813f 0727 803f 1ad9 853f 77ba 7d3f
000000f0: 8dcd 823f c8ad 7e3f 6719 7e3f 20fe 7d3f

conv2d_features.1.bias f4 [64]
-0.03139492 -0.031967957 -0.031239947 -0.03226125 -0.046642054 -0.0140140895 -0.013897147 -0.024597714
-0.028591417 -0.019111846 -0.010964473 -0.008927959 -0.02353859 -0.046079565 -0.027945207 -0.024709055
-0.04781684 -0.03733982 -0.018759096 -0.022414414 -0.0074551543 -0.044987734 -0.024655795 -0.052117195
-0.041070912 -0.03227507 -0.04182381 -0.023422183 -0.059176207 -0.028686425 -0.010882827 -0.02094321
-0.016518697 -0.020446977 -0.017751088 -0.00902082 -0.0076229908 -0.0066908994 -0.027104937 -0.0213986
-0.015520152 -0.022746714 -0.033156883 -0.020896932 -0.04044666 -0.022537861 -0.035157688 -0.026736131
-0.010343444 -0.029761536 -0.006493036 -0.034940902 -0.051143773 -0.0243324 -0.026707182 -0.02158811
-0.015025464 -0.029239923 0.013708174 -0.040833022 -0.020961085 -0.039516397 -0.02687406 -0.028770829
00000000: f697 00bd d5f0 02bd ebea ffbc 5f24 04bd
00000010: bd0b 3fbd 5a9b 65bc dcb0 63bc 2581 c9bc
00000020: 8c38 eabc 7290 9cbc 55a4 33bc 9346 12bc
00000030: 00d4 c0bc edbd 3cbd 59ed e4bc a56a cabc
00000040: 97db 43bd a4f1 18bd adac 99bc 6f9e b7bc
00000050: 5e4a f4bb 0f45 38bd f3fa c9bc d778 55bd
00000060: f939 28bd dd32 04bd 724f 2bbd e1df bfbc
00000070: c062 72bd cbff eabc e34d 32bc 1891 abbc
00000080: 3852 87bc 6b80 a7bc bb6a 91bc 10cc 13bc
00000090: 48ca f9bb 553f dbbb 2c0b debc 1e4c afbc
000000a0: 3c48 7ebc 5157 babc 83cf 07bd 0b30 abbc
000000b0: 66ab 25bd 52a1 b8bc 8201 10bd bb05 dbbc
000000c0: 8c77 29bc 77ce f3bc 89c3 d4bb 311e 0fbd
000000d0: 227c 51bd be54 c7bc 05c9 dabc 8cd9 b0bc
000000e0: 5d2d 76bc 9088 efbc 4098 603c 8740 27bd
000000f0: 95b6 abbc f2db 21bd fd26 dcbc cdb0 ebbc

conv2d_features.1.running_mean f4 [64]
0.4239431 0.67679197 -2.5046818 3.6843889 0.13079424 -3.7447627 -1.8682894 0.08402541
-0.04213773 -0.45851618 -0.030884277 -2.2236075 1.9701886 -0.17494397 -2.264882 -0.36917424
-1.6783359 -3.5218713 -0.44882008 -1.6195796 -3.319731 0.32944873 0.3915808 -2.7489765
-0.80606025 -4.2985587 -0.025304442 -1.818864 0.13195534 -4.2614655 -1.8410747 -2.0150168
-1.2128702 -3.4302833 1.5354849 0.8419611 -1.7969398 -0.4094397 -0.3964679 -1.3825347
-1.4700412 0.58408415 -1.0943449 -0.31016132 1.0888565 -1.0022142 -1.0649194 3.8819425
-0.061551265 -0.64494044 -0.03768686 -0.049460668 1.6066284 -0.7071432 2.1547754 -1.6881349
-0.6088131 0.72753644 -2.5066376 -2.3692186 0.27264795 0.1856643 -0.93571675 -2.7427447
00000000: 120f d93e 3d42 2d3f b54c 20c0 07cd 6b40
00000010: edee 053e 31aa 6fc0 1b24 efbf 8415 ac3d
00000020: 9d98 2cbd a2c2 eabe 0601 fdbc 964f 0ec0
00000030: 242f fc3f 8324 33be d4f3 10c0 6804 bdbe
00000040: b6d3 d6bf 5766 61c0 bfcb e5be 624e cfbf
00000050: 7976 54c0 81ad a83e 477d c83e 3bef 2fc0
00000060: f759 4ebf cb8d 89c0 434b cfbc 89d0 e8bf
00000070: 4d1f 073e ed5d 88c0 56a8 ebbf 09f6 00c0
00000080: 553f 9bbf c389 5bc0 c58a c43f c38a 573f
00000090: 2002 e6bf 15a2 d1be d7fd cabe e6f6 b0bf
000000a0: 4f2a bcbf 8a86 153f 7e13 8cbf 77cd 9ebe
000000b0: a65f 8b3f 8e48 80bf 474f 88bf bf71 7840
000000c0: 2e1d 7cbd d11a 25bf 895d 1abd 4597 4abd
000000d0: 00a6 cd3f 5607 35bf d7e7 0940 ce14 d8bf
000000e0: 2ddb 1bbf d43f 3a3f c06c 20c0 47a1 17c0
000000f0: 8398 8b3e c81e 3e3e 228b 6fbf 2189 2fc0

conv2d_features.1.running_var f4 [64]
2.0410182 2.261008 3.3821287 2.9230335 1.7362119 2.6682334 2.113598 1.9824542
2.5207813 1.5515599 1.6958903 2.01929 2.6735644 2.1760197 2.2734728 2.582647
2.0237703 3.3273168 1.9879221 1.3293116 2.5851297 1.8179737 2.7550712 1.8043045
2.0481827 2.374519 1.8963662 2.1127386 2.6952307 2.624775 2.3970816 1.3394861
1.1681973 2.092989 2.3289196 1.9871905 1.6871804 2.2073708 1.8456501 2.269355
2.7304516 1.9675629 1.8685448 2.1687894 1.8405768 1.871219 2.5803978 2.3982663
1.4350985 2.3450727 1.9992234 2.4817982 2.5438826 2.3482535 1.9090656 2.1167045
2.9896123 1.8436526 2.2919033 1.9397188 1.7983233 2.0783284 1.1695802 2.3936644
00000000: 0ba0 0240 5bb4 1040 cc74 5840 fb12 3b40
00000010: 313c de3f 56c4 2a40 3145 0740 0fc1 fd3f
00000020: 7b54 2140 8499 c63f ef12 d93f 0c3c 0140
00000030: ae1b 2b40 e843 0b40 9480 1140 174a 2540
00000040: 7485 0140 c2f2 5440 3b74 fe3f e226 aa3f
00000050: c472 2540 5db3 e83f 1653 3040 73f3 e63f
00000060: 6d15 0340 1ff8 1740 21bc f23f 1c37 0740
00000070: a97e 2c40 50fc 2740 c969 1940 4874 ab3f
00000080: 7d87 953f 88f3 0540 050d 1540 425c fe3f
00000090: 87f5 d73f 9045 0d40 433e ec3f 1d3d 1140
000000a0: b8bf 2e40 1ad9 fb3f 7a2c ef3f 72cd 0a40
000000b0: 0598 eb3f 1b84 ef3f 3d25 2540 327d 1940
000000c0: 4fb1 b73f ac15 1640 8de6 ff3f c8d5 1e40
000000d0: f9ce 2240 c949 1640 435c f43f 1678 0740
000000e0: cf55 3f40 cffc eb3f 8bae 1240 b548 f83f
000000f0: 752f e63f 5503 0540 ceb4 953f cc31 1940

transformer.layers.0.0.fn.norm.weight f4 [64]
1.0927317 1.0662915 1.0768665 1.0697324 1.098136 1.0738025 1.121547 1.092497
1.0838815 1.1056812 1.0797918 1.0795467 1.1261129 1.1041433 1.0736352 1.0834517
1.089009 1.0880756 1.0718616 1.1025443 1.0942421 1.0849409 1.0826706 1.1117376
1.081264 1.0749274 1.0635424 1.0792215 1.07782 1.0897596 1.0771563 1.0832587
1.089356 1.0736343 1.1107845 1.095188 1.0964913 1.0935352 1.0602489 1.0886836
1.070316 1.0908325 1.120317 1.102857 1.0785588 1.0923113 1.0753994 1.1167016
1.103418 1.0866498 1.0761088 1.0965627 1.105485 1.0913588 1.0880163 1.1078295
1.08232 1.1145322 1.106675 1.0906552 1.078884 1.0945374 1.0749121 1.0719519
00000000: a2de 8b3f 3d7c 883f c3d6 893f feec 883f
00000010: b88f 8c3f 5c72 893f da8e 8f3f f1d6 8b3f
00000020: a1bc 8a3f f686 8d3f 9e36 8a3f 962e 8a3f
00000030: 7824 903f 9154 8d3f e16c 893f 8cae 8a3f
00000040: a664 8b3f 1046 8b3f c332 893f 2c20 8d3f
00000050: 2010 8c3f 58df 8a3f f394 8a3f 6b4d 8e3f
00000060: dc66 8a3f 3997 893f 2822 883f ee23 8a3f
00000070: 01f6 893f 3e7d 8b3f 42e0 893f 39a8 8a3f
00000080: 0470 8b3f d96c 893f 302e 8e3f 1f2f 8c3f
00000090: d459 8c3f f6f8 8b3f 3cb6 873f fc59 8b3f
000000a0: 1d00 893f 66a0 8b3f 8c66 8f3f 6b2a 8d3f
000000b0: 370e 8a3f dbd0 8b3f b0a6 893f 14f0 8e3f
000000c0: cd3c 8d3f 5717 8b3f efbd 893f 2b5c 8c3f
000000d0: 8880 8d3f a5b1 8b3f 1e44 8b3f 5bcd 8d3f
000000e0: 7689 8a3f fea8 8e3f 87a7 8d3f 979a 8b3f
000000f0: df18 8a3f cd19 8c3f b896 893f b835 893f

transformer.layers.0.0.fn.norm.bias f4 [64]
0.016287858 -0.010948479 0.012778489 -0.0015828175 -0.013275045 -0.008432946 -0.0260962 0.02424275
0.008500177 0.004052101 -0.008931293 -0.0042161695 -0.028116988 -0.0056008175 -0.01427547 0.007990069
0.011011487 0.0056626624 -0.00077875674 -0.017877156 0.012011643 -0.006060707 0.009912849 0.008981273
-0.008142745 -0.0039140093 0.012767986 -0.021224685 0.004179839 -0.011131112 0.018379914 0.014410495
0.0002881398 0.0014491703 0.0034201816 -0.008224346 0.005162731 0.005880569 0.009407075 0.0020542403
0.024394223 -0.014148584 -0.0016999423 0.009103113 -0.004693204 -0.0027009929 -0.012836816 -0.0018250855
-0.015455817 0.008927659 0.0057274047 -0.0006104246 -0.007472275 -0.01811041 -0.0067464365 0.008755562
0.024167882 0.0016336848 0.008297063 0.018951468 -0.0021251203 0.020174291 0.018004367 0.0102274
00000000: 1d6e 853c 4061 33bc de5c 513c 8b76 cfba
00000010: 937f 59bc 572a 0abc b3c7 d5bc bb98 c63c
00000020: 5444 0b3c 7dc7 843b 8f54 12bc cb27 8abb
00000030: 9955 e6bc 1087 b7bb a9e3 69bc c7e8 023c
00000040: 8669 343c db8d b93b 7b25 4cba 1d73 92bc
00000050: 7bcc 443c e598 c6bb 8169 223c 3026 133c
00000060: 2669 05bc 1741 80bb d130 513c 64df adbc
00000070: 08f7 883b 455f 36bc 7991 963c ff19 6c3c
00000080: 7811 9739 16f2 bd3a 2025 603b 68bf 06bc
00000090: 202c a93b cab1 c03b 2220 1a3c 6fa0 063b
000000a0: 65d6 c73c 76cf 67bc 99d0 deba 3925 153c
000000b0: 73c9 99bb 2403 31bb 8251 52bc b537 efba
000000c0: 653a 7dbc 5145 123c f4ac bb3b e704 20ba
000000d0: fcd9 f4bb 485c 94bc 3611 ddbb 7d73 0f3c
000000e0: b9fb c53c 5e21 d63a 68f0 073c 1c40 9b3c
000000f0: 9a45 0bbb 8e44 a53c e57d 933c d390 273c
